latest.pth (torch, 4596 bytes, 7 tensors)

fc1.weight f4 [16, 4]
0	0x3de1619f	0.11004948
1	0x3e2dfe6c	0.16991585
2	0x3f148939	0.58021885
3	0xbf18ad1b	-0.5963914
4	0xbe9d31b4	-0.30701983
5	0xbdeb79ca	-0.11497839
6	0x3e98b8dc	0.29828537
7	0xbe8aad7d	-0.27085486
8	0x3ea31f4a	0.3185981
9	0x3d8805f8	0.066417634
10	0x3f6fe070	0.9370184
11	0xbe553bec	-0.2082364
12	0x3ed24972	0.4107166
13	0x3e04847d	0.12941165
14	0x3f27ecc4	0.6559565
15	0xbf417606	-0.75570714
16	0x3ef72896	0.48273152
17	0x3d34a32a	0.044100918
18	0x3e895445	0.26822105
19	0xbec509e2	-0.38484102
20	0x3e930c2c	0.28720224
21	0x3ebb9a31	0.36641076
22	0xbf90bd58	-1.1307783
23	0x3e795775	0.24349768
24	0xbe787243	-0.24262337
25	0xbeee17ab	-0.46502432
26	0x3f458d13	0.7716839
27	0xbe7e3c8c	-0.24827784
28	0xbde3093a	-0.11085744
29	0x3f5b06f9	0.85557514
30	0x3d75d3a7	0.0600163
31	0xbe230a12	-0.1592181
32	0x3ef3789c	0.47552955
33	0x3d6dc891	0.058052603
34	0xbf28f0d0	-0.6599245
35	0x3eb9c449	0.36282566
36	0x3ee33b6c	0.44381273
37	0x3ecc4d4f	0.39902732
38	0x3f21409f	0.6298923
39	0xbdaa5703	-0.083173774
40	0xbcd5a0e0	-0.026077688
41	0xbfa4808c	-1.2851729
42	0xbdd7d972	-0.10539521
43	0xbeb851bc	-0.35999858
44	0xbe11f130	-0.14252162
45	0xbe53827e	-0.20655248
46	0xbd9179ef	-0.07103335
47	0x3ec61fba	0.3869608
48	0x3d7aa19f	0.06118929
49	0x3f4a9294	0.7912991
50	0x3ea3217b	0.3186148
51	0xbeabb248	-0.33534455
52	0xbe8911be	-0.2677135
53	0xbf7522dd	-0.9575632
54	0x3f8b1e0d	1.0868546
55	0x3f2dae25	0.6784385
56	0x3d721b00	0.05910778
57	0xbf27c7ef	-0.6553945
58	0x3ee0728a	0.43837386
59	0xbe54b8d7	-0.20773636
60	0x3ec2218b	0.37916216
61	0x3f5b5793	0.856805
62	0x3f15a832	0.5845977
63	0xbe7846a2	-0.24245694

fc1.bias f4 [16]
0	0x3ee6cc51	0.45077756
1	0xbf126f5a	-0.5720116
2	0x3f2a3250	0.6648302
3	0x3f1cbde8	0.61227274
4	0x3f150d0c	0.5822303
5	0x3fbe3ab1	1.4861661
6	0x3f137dec	0.57614017
7	0x3f47593c	0.77870536
8	0x3f82b26a	1.0210698
9	0x3f21c152	0.6318561
10	0x3dd743bf	0.105109684
11	0xbe0ed4c2	-0.13948348
12	0x3ef5532b	0.47915015
13	0x3df7c85b	0.12098762
14	0xbdb983a7	-0.09058314
15	0x3f2f4d7d	0.6847761

fc2.weight f4 [16, 16]
0	0xbe3ce6dd	-0.18447442
1	0xbd0de1fd	-0.034639347
2	0xbf134b25	-0.57536536
3	0xbe084c10	-0.13310266
4	0x3d821326	0.063513085
5	0x3ed5c697	0.41753075
6	0xbf01ba5a	-0.50674975
7	0xbead4d5f	-0.33848092
8	0x3dd7772c	0.10520777
9	0xbe0aea10	-0.1356585
10	0x3f0d4dbc	0.5519674
11	0x3e3f71c2	0.18695739
12	0xbe4ccca7	-0.19999944
13	0x3c8ad200	0.016945839
14	0xbd82a7c6	-0.063796565
15	0xbd88e309	-0.066839285
16	0xbe8032f1	-0.25038865
17	0xbe47cb42	-0.1951113
18	0xbf20d58e	-0.6282586
19	0xbef21eba	-0.47289068
20	0x3ea78954	0.3272196
21	0x3e470ecf	0.19439243
22	0xbe9aa191	-0.3020139
23	0xbd1d967f	-0.038473602
24	0x3e62bc73	0.221422
25	0xbe517c07	-0.20457469
26	0x3f05af0f	0.52220243
27	0x3e1914f2	0.14949396
28	0xbed658b4	-0.4186455
29	0xbe56aa64	-0.20963436
30	0x3ad60314	0.0016327822
31	0xbcc74fab	-0.02432998
32	0xbe7e59d8	-0.2483896
33	0xbe157e10	-0.1459887
34	0x3e3211c0	0.17389584
35	0x3e7a8b2e	0.24467155
36	0x3dbbef7c	0.091765374
37	0xbe513ba8	-0.20432913
38	0x3df319b0	0.11870134
39	0x3e4368e8	0.19082987
40	0xbe37643c	-0.1790933
41	0xbe4d7292	-0.20063236
42	0x3cea94d0	0.028635412
43	0x3d8bca60	0.06825709
44	0xbe175d40	-0.14781666
45	0xbe5973ac	-0.21235532
46	0xbdb39cd0	-0.08770144
47	0xbe6217ba	-0.22079363
48	0x3e256416	0.16151461
49	0x3ce7786d	0.028255666
50	0x3e77c5e2	0.2419658
51	0x3ebbb2f2	0.36659962
52	0x3ee23c17	0.4418647
53	0x3f770c25	0.96502906
54	0x3e86a2a3	0.26295957
55	0x3f5f83dc	0.87310576
56	0x3f07fadd	0.5311716
57	0x3ee1d0bb	0.4410456
58	0xbf51ce76	-0.8195566
59	0x3ddf5743	0.10905316
60	0x3f316ff2	0.6931144
61	0xbf240500	-0.6407013
62	0xbe97d341	-0.2965336
63	0x3f0290e6	0.5100235
64	0xbe62426c	-0.2209565
65	0x3e34aff4	0.17645246
66	0x3dcae225	0.09906415
67	0xbe0b6756	-0.13613638
68	0xbdce96f3	-0.10087385
69	0xbdd25ea0	-0.102719545
70	0xbd423825	-0.047416825
71	0xbe586f78	-0.21136272
72	0x3dddefe8	0.10836774
73	0xbe1531be	-0.14569756
74	0xbe6f6845	-0.2337962
75	0xbd235342	-0.039874323
76	0xbc8ab728	-0.016933039
77	0xbcfec811	-0.031101258
78	0x3e0479c1	0.1293707
79	0xbe303bca	-0.17210308
80	0xbecce837	-0.40020916
81	0xbd889ff2	-0.06671132
82	0xbebf96d5	-0.37419763
83	0xbee11b4e	-0.43966144
84	0x3e523243	0.20526986
85	0x3f0234d8	0.50861883
86	0xbe02cc60	-0.12773275
87	0xbe4d23bd	-0.20033164
88	0x3e4922e2	0.19642213
89	0xbe8eec85	-0.27914825
90	0x3f3c980c	0.73669505
91	0x3e2a2412	0.16615322
92	0xbe06dccc	-0.13170165
93	0xbee0beac	-0.4389547
94	0x3d786906	0.060647033
95	0xbe8c158a	-0.27360183
96	0xbe08b634	-0.13350755
97	0xbce2a7e0	-0.02766794
98	0x3d21a118	0.03946027
99	0xbe4ea246	-0.2017909
100	0x3e6a1dce	0.22862932
101	0xbe4026f8	-0.18764865
102	0xbdcfdb40	-0.101492405
103	0x3d73a7a8	0.05948606
104	0x3e5a923c	0.21344846
105	0x3e699faa	0.22814813
106	0xbd92bca8	-0.071648896
107	0xbe27e730	-0.16396785
108	0x3e626ba0	0.22111368
109	0xbcc6db60	-0.024274528
110	0xbd30a7d0	-0.04312879
111	0xbe0716f6	-0.13192353
112	0x3ebc31e0	0.36756802
113	0xbdd1aa8d	-0.10237608
114	0x3ed27c90	0.4111066
115	0x3ef128f6	0.47101563
116	0x3e2728b3	0.1632412
117	0xbf15cc86	-0.58515203
118	0x3f035938	0.5130801
119	0xbe895e41	-0.26829723
120	0xbf87fa24	-1.0623212
121	0x3ed8e516	0.4236228
122	0xb9ac29ce	-0.00032837543
123	0xbe0cece4	-0.13762242
124	0xbd29cc9f	-0.041454908
125	0x3ddaa997	0.10676878
126	0x3ee3babc	0.44478405
127	0x3d513f19	0.051085565
128	0x3ec9fb66	0.39449614
129	0x390049d7	0.00012234539
130	0x3e845b0a	0.25850707
131	0x3ea35ce7	0.31906816
132	0x3e503225	0.20331629
133	0xbf40461c	-0.7510698
134	0x3ee0e9ab	0.43928275
135	0xbf468bf1	-0.77557284
136	0xbf05e11d	-0.5229662
137	0xbd74b492	-0.059742518
138	0x3e38ac4e	0.18034479
139	0xbd7c1957	-0.061547603
140	0xbe2567c5	-0.16152866
141	0x3e36f2b5	0.17866023
142	0x3ec007fd	0.37506095
143	0xbb3ff023	-0.002928742
144	0xbd293e00	-0.041318893
145	0x3e6e1736	0.23251042
146	0xbd9f1dac	-0.07769331
147	0x3d5e6758	0.054297775
148	0x3e339afa	0.17539588
149	0x3e3cc878	0.18435848
150	0xbd1bba30	-0.03801936
151	0xbe3ea8fa	-0.18619147
152	0xbe0d0c90	-0.13774323
153	0xbd45a5c8	-0.048253804
154	0xbe7a4168	-0.24439013
155	0xbda26cd4	-0.079309136
156	0xbe66d85a	-0.22543469
157	0xbd7a26a0	-0.061071992
158	0x3e0d9c2e	0.13829109
159	0xbde3f168	-0.11130029
160	0x3d030294	0.03198488
161	0x3d774934	0.060372546
162	0xbd48fb10	-0.049067557
163	0xbe20ec28	-0.15715086
164	0xbe73e87f	-0.23819159
165	0xbe7dd8d2	-0.24789742
166	0xbe84db6a	-0.2594865
167	0x3e04ea6e	0.12980053
168	0x3dc7ce48	0.09756142
169	0x3e4e5b8d	0.20152111
170	0xbddf2bfe	-0.10897063
171	0x3d3f9950	0.04677707
172	0xbe667d74	-0.22508794
173	0x3e5be54a	0.21474186
174	0x3d4db9ce	0.050226025
175	0x3dea62b8	0.1144461
176	0x3e41a051	0.18908812
177	0xbd79ad72	-0.060956426
178	0x3e86f986	0.26362246
179	0x3ec7e8d2	0.39044815
180	0x3c7a78f4	0.015287627
181	0xbf063369	-0.52422196
182	0x3e8e8be4	0.27841103
183	0xbe4c996a	-0.19980398
184	0xbf3c2229	-0.73489624
185	0x3e7299af	0.23691438
186	0x3efb3844	0.49066365
187	0xbe500cef	-0.20317434
188	0x3dc6401b	0.09680196
189	0x3e8649d7	0.2622821
190	0x3f0c7126	0.5486015
191	0xbde0fc40	-0.10985613
192	0xbe22a4cc	-0.15883178
193	0xbd27ee28	-0.040998608
194	0xbe224820	-0.15847826
195	0xbec77bcd	-0.3896164
196	0xbe7d15c8	-0.2471534
197	0x3e9b07c0	0.3027935
198	0xbef1940d	-0.47183266
199	0x3e054872	0.13015917
200	0x3ecd42ee	0.40090126
201	0xbd8a598c	-0.06755361
202	0x3f1863c4	0.5952723
203	0x3d41fbc0	0.047359228
204	0x3dfd0572	0.12354554
205	0xbea94af7	-0.33065006
206	0xbc1bfd28	-0.009520806
207	0xbeb90a22	-0.36140543
208	0xbeed1730	-0.46306753
209	0xbe04aa7c	-0.1295566
210	0xbf0d6152	-0.55226624
211	0xbf19585c	-0.5990045
212	0xbd07cfc1	-0.033157114
213	0x3f305f10	0.68895054
214	0xbf188dc9	-0.59591347
215	0x3cacfdec	0.021117173
216	0x3ea6471c	0.32476127
217	0xbde6a72f	-0.112623565
218	0x3f55f2b2	0.8357345
219	0xbe7ada68	-0.24497378
220	0xbec1385d	-0.37738314
221	0xbf008293	-0.5019924
222	0xbda8a9dd	-0.08235524
223	0xbedfcd0d	-0.4371113
224	0x3ee452c7	0.44594404
225	0x3e3465e6	0.17616996
226	0x3de3853f	0.11109399
227	0x3eb62530	0.35575247
228	0x3ea928ac	0.33038843
229	0x3ee62583	0.44950494
230	0x3e60a6d4	0.2193864
231	0x3eaa0f02	0.33214575
232	0x3e9bfb5b	0.30465207
233	0x3f096a3c	0.53677726
234	0xbf2aefc7	-0.6677212
235	0xbad2654d	-0.0016051919
236	0x3f09b6de	0.5379466
237	0xbe3270fa	-0.1742591
238	0xbe4d27b9	-0.20034684
239	0x3e56eea9	0.20989479
240	0xbf17335f	-0.5906276
241	0xbe29d6ad	-0.16585799
242	0xbf23978b	-0.6390311
243	0xbe3eca05	-0.18631752
244	0x3e9ab54f	0.30216452
245	0x3f01894c	0.50600123
246	0xbdfe3f69	-0.12414438
247	0xbe98baf8	-0.29830146
248	0x3e50539e	0.20344397
249	0xbecb951f	-0.39762208
250	0x3f415b9a	0.755304
251	0xbd964c66	-0.073387906
252	0xbe8705f5	-0.26371732
253	0xbd901f8b	-0.07037266
254	0x3e0467f6	0.12930283
255	0xbe92e790	-0.28692293

fc2.bias f4 [16]
0	0x3e9381e7	0.28810045
1	0x3ede197a	0.43378812
2	0xbda15670	-0.07877815
3	0x3eb335fc	0.35002124
4	0x3daf9169	0.08572657
5	0x3e78310c	0.2423746
6	0xbe442332	-0.19154051
7	0xbd94bc16	-0.07262437
8	0xbe1d18e4	-0.15341526
9	0xbe50b0f8	-0.20380008
10	0x3e3930fc	0.18085092
11	0xbe8b1dd4	-0.27171195
12	0xbc76793f	-0.015043556
13	0x3edf31ea	0.4359277
14	0x3e9803fb	0.29690537
15	0x3eec5ab7	0.4616296

action_head.weight f4 [4, 16]
0	0xbe2fb977	-0.17160593
1	0x3dde0f39	0.10842747
2	0xbd9d5b04	-0.076833755
3	0xbce6231f	-0.028092919
4	0x3d9a7043	0.075409435
5	0xbe9bb192	-0.30408913
6	0xbdba4ca0	-0.09096646
7	0xbf056d5e	-0.52120006
8	0xbe50f1b8	-0.20404708
9	0x3b7da180	0.0038700998
10	0xbe818a28	-0.25300717
11	0xbea7677f	-0.3269615
12	0xbc84c72d	-0.016208256
13	0x3ec6cf2d	0.38829938
14	0xbd9699b0	-0.07353532
15	0xbcca3acc	-0.02468624
16	0x3ef23fd8	0.47314334
17	0x3f165ffa	0.587402
18	0xbe56bfbe	-0.20971581
19	0xbe8f9e21	-0.2805033
20	0xbe7be79b	-0.24600069
21	0x3ec3608e	0.38159603
22	0xbda3f40c	-0.080055326
23	0xbde2db4a	-0.11076982
24	0x3e241a8d	0.16025753
25	0x3e3ac47e	0.18239018
26	0xbe1c7e54	-0.15282565
27	0x3e851eb7	0.25999996
28	0x3edbad25	0.42905536
29	0x3f0028c9	0.50062233
30	0xbe0b3b23	-0.13596778
31	0x3f30c96c	0.69057345
32	0xbfc18bca	-1.5120785
33	0xbfd438ff	-1.6579894
34	0xbde7170c	-0.11283693
35	0x3f2dd002	0.6789552
36	0x3e2046dd	0.15652032
37	0xbfde713b	-1.7378305
38	0xbdb71858	-0.0894019
39	0xbfcac769	-1.5842105
40	0xbfe6b953	-1.8025306
41	0xbe6e6cea	-0.23283735
42	0xbe720b82	-0.23637202
43	0xbfe5c6c8	-1.7951288
44	0xbfa52810	-1.2902851
45	0xbfdee7c3	-1.7414478
46	0x3e5f5ea7	0.21813451
47	0xbfcd0fcc	-1.6020446
48	0x3f013274	0.5046761
49	0x3f12653c	0.5718572
50	0x3e148e24	0.14507347
51	0xbf157574	-0.58382344
52	0x3bb4b1b7	0.0055143493
53	0x3ec7b914	0.3900839
54	0x3daac044	0.08337453
55	0xbe5e6983	-0.21719937
56	0x3e5b3117	0.21405445
57	0x3e79d8dc	0.24399132
58	0xbdb0a32a	-0.08624871
59	0x3e38c83e	0.18045136
60	0x3f1c0d77	0.60958046
61	0x3f33e012	0.7026378
62	0xbdc003ca	-0.09375723
63	0x3f3a6521	0.7281056

action_head.bias f4 [4]
0	0xbe5f56a6	-0.21810398
1	0xbed9023c	-0.42384517
2	0x3eca84ad	0.3955435
3	0xbdd3480c	-0.10316476

value_head.weight f4 [1, 16]
0	0xbf83aa7c	-1.0286403
1	0xbf868a7a	-1.051101
2	0xbd9171b4	-0.07101765
3	0x3f3a0aac	0.72672534
4	0x3d8b81a3	0.068118356
5	0xbf6fe6d7	-0.9371161
6	0x3db4f414	0.08835617
7	0x3f644ec0	0.8918266
8	0x3f278387	0.6543507
9	0xbd8e89fc	-0.06959912
10	0xbd9bba58	-0.076039016
11	0x3e54a371	0.20765473
12	0xbf36dd08	-0.71431017
13	0xbf9d73b5	-1.2300936
14	0x3f6f274d	0.93419343
15	0xbf99e696	-1.2023494
