latest.pth (torch, 6725 bytes, 7 tensors)

fc1.weight f4 [16, 42]
-0.08498495 -0.05077692 -0.0424485 0.023948757 0.083420016 0.07162792 0.046222594 -0.12987246
-0.0009040968 -0.08849318 0.005900914 0.011799984 -0.08399398 0.057539508 -0.075466424 -0.032014053
0.026734412 -0.063553184 0.12644903 0.060243882 -0.081162155 0.03978862 0.06816966 0.016099177
0.061667535 0.010694464 0.1491506 -0.039135873 0.12891252 0.0908784 -0.11887754 0.08980227
-0.14037849 -0.12648244 0.0545838 0.12162735 -0.012587558 0.119117625 -0.0461627 -0.10215107
-0.12785687 0.004232605 0.12622845 0.08365744 -0.016703751 0.088059664 0.046355434 -0.14150226
0.0099634295 0.1401461 0.013770696 -0.13916825 -0.044493433 0.018824264 -0.093987145 0.10565768
-0.14295995 0.0078071225 -0.1541264 0.056777477 0.014532398 0.13700151 0.055709388 0.092943005
-0.13353437 0.07509732 0.15224832 -0.09137954 0.11191565 -0.02991335 -0.023643492 -0.08398316
-0.068721674 0.054556686 0.14152783 0.0987566 0.12319678 0.069148846 0.14254504 -0.014192654
0.021024829 -0.09338804 0.070849225 -0.12112859 -0.12548968 0.046789 0.064657286 0.03891002
-0.11736303 0.018916186 0.07959432 -0.14058046 0.014866268 -0.037103735 -0.14895487 -0.118125744
0.1408271 0.045217253 0.06555504 -0.011015312 -0.061592266 0.084849715 -0.13138786 -0.01668388
-0.01059186 -0.109096766 0.015994074 -0.09251131 0.11121316 0.11124473 -0.08639427 -0.08949647
0.0057564704 -0.0724747 -0.118133195 -0.09442201 -0.14316717 -0.11738439 0.0040578954 -0.022140615
-0.11458017 -0.12918301 0.095536835 -0.02449232 0.010780421 -0.05184563 0.00071302376 0.045225132
-0.060974605 -0.15849364 -0.09037724 0.11749751 0.062182337 0.15415515 0.1783362 -0.04591007
-0.059247643 0.13758184 0.12202865 0.05905726 -0.07402011 -0.0044732494 0.038258296 -0.037639786
-0.06617151 0.048130494 -0.058581803 -0.046366084 0.031180538 -0.107826576 0.017675761 -0.052932996
0.14577195 -0.13751128 0.023808507 -0.07665227 -0.043924708 0.0006637433 0.03588724 -0.14748584
0.13506538 0.0984838 0.07195917 0.003358706 -0.08868084 -0.09576256 0.008297784 0.15071198
-0.079538725 -0.14490883 -0.10245547 -0.049826823 -0.07071921 -0.1430426 0.14823195 0.15024835
0.11859418 -0.07249981 -0.09035231 -0.068702966 0.09827881 -0.008990913 -0.11730716 0.06761899
-0.023010135 -0.12035557 -0.12495212 -0.083273955 0.05960293 -0.13312185 0.002406953 -0.10516456
-0.051859003 -0.004409191 0.135648 -0.10465023 0.033521924 0.13416354 0.13549107 -0.061543632
0.015287672 0.03930823 -0.10588379 -0.09908017 0.056039147 0.112135515 -0.023007395 0.06023603
0.0040318854 -0.053977612 0.17738795 -0.03051879 0.012403397 -0.095602416 -0.05835897 -0.006112558
-0.1245113 0.04257491 -0.09830625 0.09547566 0.13014401 0.008620508 -0.08070411 0.1398683
0.07263328 0.044075686 -0.09478543 -0.13911751 -0.031818476 0.07904411 0.10695008 0.008504703
-0.04053681 0.07133336 -0.06987098 -0.13695732 -0.0018933533 -0.010498674 0.069396034 -0.09917576
-0.07483086 -0.013332753 0.1035641 0.010557627 -0.14985062 0.06862336 -0.085402645 -0.017684333
-0.02983863 -0.04048032 -0.03301643 0.14836343 0.029459862 0.01942325 -0.01295459 0.05339895
00000000: 970c aebd 76fb 4fbd 7ade 2dbd 2f30 c43c
00000010: 1dd8 aa3d a9b1 923d e753 3d3d 49fd 04be
00000020: e900 6dba ea3b b5bd 745c c13b b854 413c
00000030: 0905 acbd 8cae 6b3d 248e 9abd 2b21 03bd
00000040: 2002 db3c 2c28 82bd db7b 013e 4ac2 763d
00000050: 5838 a6bd 64f9 223d 899c 8b3d 6ce2 833c
00000060: 1997 7c3d d537 2f3c efba 183e f04c 20bd
00000070: a501 043e 741e ba3d 1176 f3bd 41ea b73d
00000080: 61bf 0fbe 9d84 01be 4393 5f3d c317 f93d
00000090: 0b3c 4ebc f1f3 f33d 1915 3dbd 9534 d1bd
000000a0: e9ec 02be aab1 8a3b 0842 013e 9854 ab3d
000000b0: 4ed6 88bc a058 b43d 32df 3d3d f8e5 10be
000000c0: a73d 233c 7682 0f3e 7c9e 613c 1f82 0ebe
000000d0: bf3e 36bd 5835 9a3c 557c c0bd 0e63 d83d
000000e0: 1864 12be e4d2 ff3b 50d3 1dbe 808f 683d
000000f0: 4c19 6e3c 204a 0c3e 872f 643d e758 be3d
00000100: 3cbd 08be a0cc 993d fce6 1b3e 3225 bbbd
00000110: 0834 e53d d70c f5bc ffaf c1bc 5dff abbd
00000120: f3bd 8cbd d576 5f3d acec 103e e640 ca3d
00000130: 984e fc3d e99d 8d3d 54f7 113e 4e88 68bc
00000140: 433c ac3c 3b42 bfbd 6619 913d 4412 f8bd
00000150: 5e80 00be d3a5 3f3d 0a6b 843d 1d60 1f3d
00000160: 075c f0bd 1ef6 9a3c 5902 a33d 53f4 0fbe
00000170: a691 733c 16fa 17bd a087 18be e9eb f1bd
00000180: fb34 103e ba35 393d b941 863d 9179 34bc
00000190: 2c48 7cbd b0c5 ad3d 8a8a 06be a2ac 88bc
000001a0: 7b89 2dbc 206e dfbd 0106 833c 9276 bdbd
000001b0: bac3 e33d 47d4 e33d 7bef b0bd ed49 b7bd
000001c0: c6a0 bc3b 9e6d 94bd d1ef f1bd 5460 c1bd
000001d0: 6a9a 12be 3a67 f0bd 18f8 843b 3c60 b5bc
000001e0: 02a9 eabd 8d48 04be d1a8 c33d 1ea4 c8bc
000001f0: 5da0 303c 155c 54bd 37ea 3a3a fd3d 393d
00000200: 82c0 79bd 284c 22be b417 b9bd 89a2 f03d
00000210: e8b2 7e3d d9da 1d3e c49d 363e 330c 3cbd
00000220: a8ad 72bd 41e2 0c3e 28ea f93d 07e6 713d
00000230: db97 97bd 5694 92bb bbb4 1c3d 2d2c 1abd
00000240: ee84 87bd 7b24 453d 79f3 6fbd 5dea 3dbd
00000250: 546e ff3c 2ed4 dcbd c2cc 903c 45d0 58bd
00000260: 3e45 153e c2cf 0cbe 0f0a c33c defb 9cbd
00000270: 65ea 33bd 0fff 2d3a 80fe 123d 8706 17be
00000280: 944e 0a3e e0b1 c93d 545f 933d bc1d 5c3b
00000290: 4d9e b5bd 291f c4bd 6ef3 073c 3e54 1a3e
000002a0: 33e5 a2bd fb62 14be 2cd4 d1bd 3617 4cbd
000002b0: 3cd5 90bd c279 12be 1eca 173e b4da 193e
000002c0: 81e1 f23d c87a 94bd a20a b9bd 24b4 8cbd
000002d0: 6746 c93d 9f4e 13bc bc3e f0bd d37b 8a3d
000002e0: c07f bcbc fb7c f6bd e6e6 ffbd 898b aabd
000002f0: 3422 743d 1851 08be f8bd 1d3b 8460 d7bd
00000300: 1b6a 54bd fa7a 90bb 4fe7 0a3e dc52 d6bd
00000310: 494e 093d 2b62 093e 2cbe 0a3e 2d15 7cbd
00000320: 2579 7a3c ab01 213d 9ad9 d8bd 8bea cabd
00000330: 4e89 653d 4ea7 e53d 017a bcbc 0eba 763d
00000340: e81d 843b a117 5dbd 30a5 353e 8b02 fabc
00000350: 9e37 4b3c 33cb c3bd d109 6fbd da4b c8bb
00000360: c8ff febd 0763 2e3d ca54 c9bd be88 c33d
00000370: 7944 053e 083d 0d3c 3248 a5bd a339 0f3e
00000380: c2c0 943d b588 343d dd1e c2bd d274 0ebe
00000390: 1754 02bd e1e1 a13d a508 db3d 4f57 0b3c
000003a0: ed09 26bd 3a17 923d 8418 8fbd 8a3e 0cbe
000003b0: 652a f8ba a102 2cbc 821f 8e3d a91c cbbd
000003c0: ec40 99bd 9f71 5abc 6a19 d43d e6f9 2c3c
000003d0: 7172 19be 678a 8c3d 95e7 aebd bcde 90bc
000003e0: 2570 f4bc b1ce 25bd 3c3c 07bd 95ec 173e
000003f0: cf55 f13c 821d 9f3c 7d3f 54bc dbb8 5a3d

fc1.bias f4 [16]
-0.1143215 0.032895084 -0.15516752 0.072469674 -0.0009769172 -0.08955373 0.08511232 -0.051813275
0.10851273 -0.11513677 -0.16179056 0.03627262 -0.15242545 0.108778685 -0.123847544 0.120181546
00000000: 6421 eabd ffbc 063d 3ce4 1ebe fb6a 943d
00000010: e70b 80ba f267 b7bd 5e4f ae3d 283a 54bd
00000020: ec3b de3d d4cc ebbd 6dac 25be 9992 143d
00000030: 6b15 1cbe 5cc7 de3d c8a3 fdbd be21 f63d

fc2.weight f4 [16, 16]
-0.05147603 -0.23074022 0.23994628 -0.08102691 -0.020967424 0.23142824 0.16171896 -0.06800139
-0.034691453 0.003704697 0.05355242 0.009325087 -0.041119933 0.00071823597 0.043130457 -0.09187329
-0.2164052 -0.2398632 0.07091275 0.23144478 -0.17940587 -0.07348674 -0.15301979 -0.20539561
-0.022517703 0.26302868 0.009930645 -0.027802914 0.17394347 0.19989994 -0.057575125 0.056717727
0.054941356 -0.08103344 0.05117926 0.0006516874 -0.05809039 -0.051621735 -0.23153225 -0.008398712
0.18475205 -0.19431663 0.09823185 0.1743829 -0.07931802 0.14831278 -0.09069362 -0.152093
0.2105306 -0.039424017 0.24615401 0.14579812 0.041551508 0.05951925 -0.18077263 0.01187841
0.15359998 0.08127937 -0.20045671 -0.2543332 -0.15902552 0.035119224 -0.06993818 0.0038363913
-0.1920628 -0.037126392 0.109255634 0.18761355 0.20078671 -0.16237734 0.1458492 0.09194284
-0.1147448 -0.059622187 0.18602975 0.19700609 0.026237017 0.11311753 0.059857305 0.13534054
0.03172017 0.03497395 0.08134353 0.15171953 -0.08181574 -0.18668321 -0.060921777 0.13120611
-0.07490417 -0.072007544 0.22208075 -0.14751953 0.23768318 -0.02623341 -0.08723271 -0.25932643
-0.22520755 -0.028977036 -0.08646163 0.050509956 -0.13212928 -0.14666307 -0.029165925 -0.037718285
-0.07717839 0.18208039 -0.059031337 -0.10471178 -0.009753883 0.09214856 0.054537214 0.16259037
-0.21529318 -0.18734834 -0.11968991 -0.21880779 0.2604614 0.089518115 -0.03379168 -0.1562234
-0.2518678 -0.10421911 0.16215709 0.0015293942 0.048249185 -0.1768553 -0.22722521 -0.1914534
0.109188765 -0.09160763 0.08578074 0.09992513 0.15223563 -0.018352896 -0.052994102 0.0023210943
0.046679348 -0.14981243 -0.12743151 -0.04079488 0.2337211 0.055948168 0.20436746 -0.029211462
-0.14246991 0.22599132 -0.12112456 -0.15224081 -0.23003668 0.022828149 0.102252625 -0.22559738
-0.08538895 0.006145057 -0.06510016 -0.12285009 -0.24805109 0.22884367 0.040645752 -0.11543573
0.06057528 0.088324815 -0.0885976 -0.02853065 -0.05946151 0.27443385 -0.22703391 -0.13787423
0.26025242 0.14564636 0.12186493 -0.22455536 -0.116914645 -0.005266318 -0.12045303 0.18465292
-0.19483571 0.06797315 -0.23802185 -0.00070995174 0.1804038 -0.22919288 -0.03285466 0.17422417
0.0138864815 -0.24289471 0.07313853 0.23997353 0.22860704 0.21808109 0.011618101 -0.26875615
0.17803156 0.2170361 0.020097746 0.2506094 -0.09514865 -0.208328 -0.11460711 0.018472198
0.033759985 0.041800417 0.045606297 0.040017948 -0.10914418 0.23752768 -0.050020188 0.112734586
0.039407223 0.19454177 0.14178683 0.0108487345 -0.08383457 -0.016486516 0.12952462 0.22519594
0.073347434 -0.18077847 -0.056935623 -0.21178056 -0.18412343 -0.043932207 -0.08165409 0.013168255
0.19661963 -0.029893154 -0.024211112 0.037592802 -0.08447672 0.22431628 -0.13848603 -0.06678656
0.18485832 -0.20902959 -0.066540584 0.21802817 0.067722976 -0.03027525 0.039605826 -0.18453486
0.20852445 -0.026145596 -0.02906402 0.2763081 0.23346376 -0.1129373 0.20644943 0.030073242
0.0075446633 -0.18292597 0.11748312 0.17197576 0.12979724 0.001628868 0.071629874 -0.20990877
00000000: 88d8 52bd 2a47 6cbe 7ab4 753e 70f1 a5bd
00000010: e0c3 abbc 86fb 6c3e a899 253e 5044 8bbd
00000020: a018 0ebd 80ca 723b c859 5b3d 40c8 183c
00000030: 606d 28bd 0048 3c3a 90a9 303d 1028 bcbd
00000040: 5399 5dbe b39e 75be b43a 913d dcff 6c3e
00000050: 2cb6 37be 3780 96bd 38b1 1cbe 3a53 52be
00000060: 0c77 b8bc b2ab 863e 25b4 223c f0c2 e3bc
00000070: 3d1e 323e 92b2 4c3e e5d3 6bbd d950 683d
00000080: 300a 613d dcf4 a5bd 58a1 513d 00d6 2a3a
00000090: 30f0 6dbd 5071 53bd ca16 6dbe c09a 09bc
000000a0: a42f 3d3e f0fa 46be c82d c93d 6e91 323e
000000b0: 7c71 a2bd 4edf 173e 94bd b9bd 44be 1bbe
000000c0: 5595 573e 147b 21bd cc0f 7c3e 1a4c 153e
000000d0: ea31 2a3d 75ca 733d 761c 39be aa9d 423c
000000e0: 5049 1d3e cc75 a63d 8644 4dbe f637 82be
000000f0: 96d7 22be 2dd9 0f3d c03b 8fbd f76b 7b3b
00000100: 1cac 44be d811 18bd 6bc1 df3d c41d 403e
00000110: 089b 4d3e 3f46 26be 7e59 153e 874c bc3d
00000120: 52ff eabd 6536 74bd 957e 3e3e f7bb 493e
00000130: 03ef d63c 2aaa e73d ef2c 753d b696 0a3e
00000140: 02ed 013d d840 0f3d 7097 a63d 5d5c 1b3e
00000150: 038f a7bd e229 3fbe 1d89 79bd e55a 063e
00000160: 5c67 99bd b178 93bd 2369 633e 5c0f 17be
00000170: 3863 733e 73e7 d6bc 10a7 b2bd 6fc6 84be
00000180: cf9c 66be 4061 edbc cc12 b1bd 87e3 4e3d
00000190: e64c 07be d82e 16be 61ed eebc 7d7e 1abd
000001a0: b40f 9ebd 4873 3a3e d8ca 71bd 2173 d6bd
000001b0: c0ce 1fbc 62b8 bc3d 6a62 5f3d 177e 263e
000001c0: d175 5cbe 3ed8 3fbe fc1f f5bd 260f 60be
000001d0: 325b 853e 4655 b73d 2569 0abd 07f9 1fbe
000001e0: d1f4 80be d470 d5bd 820c 263e f475 c83a
000001f0: f0a0 453d 8e19 35be baad 68be 5c0c 44be
00000200: 5c9e df3d c89c bbbd d0ad af3d 8ca5 cc3d
00000210: a8e3 1b3e d058 96bc 5810 59bd 801d 183b
00000220: d832 3f3d 6e68 19be 687d 02be 8818 27bd
00000230: 9654 6f3e e829 653d b445 513e e04c efbc
00000240: a2e3 11be 456a 673e 2710 f8bd 04e5 1bbe
00000250: bc8e 6bbe 1902 bb3c d369 d13d 0003 67be
00000260: 67e0 aebd 795c c93b 3c53 85bd d498 fbbd
00000270: 1b01 7ebe ff55 6a3e 297c 263d 9169 ecbd
00000280: c91d 783d a4e3 b43d a972 b5bd 1cb9 e9bc
00000290: ea8d 73bd 9882 8c3e 947b 68be e72e 0dbe
000002a0: ce3f 853e 5224 153e 5294 f93d d7f1 65be
000002b0: f270 efbd 1491 acbb 14b0 f6bd a815 3d3e
000002c0: 0383 47be 8235 8b3d 00bc 73be 0e1c 3aba
000002d0: c6bb 383e 8ab1 6abe 9c92 06bd d267 323e
000002e0: 2084 633c 64b9 78be a7c9 953d 9fbb 753e
000002f0: f717 6a3e a650 5f3e d959 3e3c 689a 89be
00000300: e84d 363e b63e 5e3e 07a4 a43c e04f 803e
00000310: 4cdd c2bd ef53 55be 22b7 eabd 0253 973c
00000320: e947 0a3d ea36 2b3d abcd 3a3d dce9 233d
00000330: fc86 dfbd 753a 733e f8e1 4cbd 64e1 e63d
00000340: 7869 213d f535 473e 9130 113e e4be 313c
00000350: 76b1 abbd bb0e 87bc 1aa2 043e c499 663e
00000360: 2e37 963d fe1d 39be 5435 69bd 01dd 58be
00000370: da8a 3cbe 42f2 33bd 423a a7bd aabf 573c
00000380: a856 493e 7de2 f4bc 6256 c6bc e9fa 193d
00000390: 2102 adbd 2bb3 653e 48cf 0dbe 64c7 88bd
000003a0: 804b 3d3e da0b 56be 6e46 88bd c742 5f3e
000003b0: 58b2 8a3d cd03 f8bc b839 223d b5f6 3cbe
000003c0: 6f87 553e 4a2f d6bc ab17 eebc 4178 8d3e
000003d0: 2011 6f3e ac4b e7bd 7b67 533e 295c f63c
000003e0: 3939 f73b f250 3bbe fd9a f03d 6a1a 303e
000003f0: 91e9 043e be7f d53a afb2 923d 53f2 56be

fc2.bias f4 [16]
-0.22552297 0.18976997 -0.20010126 0.10421427 0.12746088 -0.0009840789 -0.21267642 0.21503766
-0.15577361 0.23047625 0.1099983 -0.051337864 -0.014662318 -0.030356105 0.00017972104 0.12466846
00000000: 7eef 66be 0f53 423e 58e7 4cbe 4b6e d53d
00000010: 1b85 023e 35fc 80ba d9c7 59be d532 5c3e
00000020: 1e83 1fbe f701 6c3e ca46 e13d a747 52bd
00000030: 383a 70bc 5ead f8bc 8073 3c39 2d52 ff3d

action_head.weight f4 [7, 16]
0.10301137 -0.03833465 -0.22439227 0.2105956 -0.14518121 -0.16788986 -0.090234414 -0.07365694
-0.061456174 -0.2264655 0.04773058 -0.15787956 -0.09992839 0.21040478 0.07428361 -0.23028393
0.13553864 0.06556063 -0.0073740482 -0.24345459 -0.07635138 0.21325949 -0.16502643 -0.07798026
-0.056235343 -0.13712561 -0.099246174 -0.10834194 0.008267398 -0.13270888 -0.17853566 -0.054660577
-0.2420302 0.09358763 -0.24875525 -0.10530528 -0.036214396 0.10277474 -0.23990087 0.11663587
0.08536729 -0.14025667 0.009973653 0.12853663 0.14412571 -0.031873453 -0.050259683 -0.20875093
-0.17630157 -0.1184642 0.016424507 -0.071309015 -0.13986173 0.23047012 -0.2236184 -0.22192432
0.099722564 0.11829413 0.044073947 -0.0143313715 0.2031667 -0.04808593 -0.14359693 -0.19070917
-0.11224839 -0.22730836 0.013571024 -0.17355135 0.104191646 -0.110247105 -0.17816931 -0.07430238
0.018200517 -0.22257723 0.06665992 -0.09503891 0.1721581 -0.021262562 -0.21827896 -0.18383962
0.15997499 0.052834455 0.16467208 -0.19709584 -0.0069527896 0.10526549 0.081341 0.21995217
0.15673178 -0.21233495 -0.16823515 -0.00572534 -0.15080824 -0.19915642 -0.036845416 0.19024973
0.08247733 -0.24477789 0.055792987 -0.028740808 0.17528126 -0.1540942 -0.15718965 0.10938861
-0.09081519 -0.030240659 -0.1872983 -0.15651327 -0.11080715 0.119065166 0.08077766 0.07505321
00000000: a0f7 d23d cb04 1dbd 16c7 65be 5fa6 573e
00000010: 62aa 14be 52eb 2bbe d2cc b8bd 73d9 96bd
00000020: 78b9 7bbd 92e6 67be 2481 433d 2eab 21be
00000030: 41a7 ccbd 5a74 573e 0122 983d 8dcf 6bbe
00000040: a4ca 0a3e a744 863d 00a2 f1bb 294c 79be
00000050: 1d5e 9cbd b260 5a3e b0fc 28be 1db4 9fbd
00000060: 0857 66bd a86a 0cbe 9441 cbbd 61e2 ddbd
00000070: fb73 073c d6e4 07be 0dd2 36be c5e3 5fbd
00000080: c4d6 77be dfaa bf3d b2b9 7ebe 4baa d7bd
00000090: 8c55 14bd 907b d23d 93a8 75be c9de ee3d
000000a0: 0cd5 ae3d 729f 0fbe 8868 233c 1b9f 033e
000000b0: b195 133e bd8d 02bd 19dd 4dbd cec2 55be
000000c0: 6688 34be 5c9d f2bd b08c 863c 760a 92bd
000000d0: ea37 0fbe 5c00 6c3e 39fc 64be 2140 63be
000000e0: 583b cc3d 3144 f23d e286 343d 21ce 6abc
000000f0: ee0a 503e c1f5 44bd 130b 13be 4449 43be
00000100: 7ce2 e5bd 86c3 68be 0059 5e3c 72b7 31be
00000110: 6e62 d53d 3cc9 e1bd 0472 36be d92b 98bd
00000120: 4019 953c 49eb 63be ff84 883d c3a3 c2bd
00000130: 374a 303e d32e aebc 8584 5fbe 7440 3cbe
00000140: 7cd0 233e f168 583d cc9f 283e 7ed3 49be
00000150: 3ad4 e3bb 6f95 d73d 1c96 a63d 243b 613e
00000160: 4c7e 203e 556e 59be d645 2cbe a29b bbbb
00000170: 7a6d 1abe a9ef 4bbe 38eb 16bd d3d0 423e
00000180: e0e9 a83d 0ea7 7abe 3087 643d d871 ebbc
00000190: ee7c 333e dfca 1dbe 53f6 20be 2307 e03d
000001a0: 50fd b9bd 42bb f7bc 20cb 3fbe 0445 20be
000001b0: dcee e2bd 70d8 f33d c26e a53d 7fb5 993d

action_head.bias f4 [7]
-0.15567327 0.1620564 0.1404267 0.082420655 0.0071340664 -0.12419958 0.09961971
00000000: d068 1fbe 1df2 253e 04cc 0f3e 29cc a83d
00000010: e3c4 e93b 595c febd 6b05 cc3d

value_head.weight f4 [1, 16]
-0.11926624 0.20746131 0.20318985 -0.020650214 0.17583847 -0.20841806 -0.22970414 0.052731678
-0.12920088 -0.027206268 -0.1612523 -0.015880153 0.18436716 -0.03754922 -0.046487425 0.11973226
00000000: dc41 f4bd bd70 543e 0011 503e a32a a9bc
00000010: 000f 343e 8b6b 55be 9037 6bbe 2cfd 573d
00000020: 3c4d 04be aedf debc 531f 25be 1817 82bc
00000030: bfca 3c3e 36cd 19bd 9969 3ebd 3036 f53d
